# Single-Scale BCAM Fusion at P5
# Clean comparison architecture - fusion only at highest semantic level

# parameters
nc: 3  # number of classes
depth_multiple: 1.00  # model depth multiple
width_multiple: 1.00  # layer channel multiple

# anchors
anchors:
  - [10,13, 16,30, 33,23]   # P3/8
  - [30,61, 62,45, 59,119]  # P4/16
  - [116,90, 156,198, 373,326]  # P5/32

# YOLOv5 backbone with single-scale BCAM fusion
backbone:
  # [from, number, module, args]
  [
    ######### RGB Stream (Independent Processing) #############
    [-1, 1, Focus, [64, 3]],        # 0-P1/2 RGB input
    [-1, 1, Conv, [128, 3, 2]],     # 1-P2/4 RGB
    [-1, 3, C3, [128]],             # 2-P2/4 RGB features
    [-1, 1, Conv, [256, 3, 2]],     # 3-P3/8 RGB
    [-1, 9, C3, [256]],             # 4-P3/8 RGB features
    [-1, 1, Conv, [512, 3, 2]],     # 5-P4/16 RGB
    [-1, 9, C3, [512]],             # 6-P4/16 RGB features
    [-1, 1, Conv, [1024, 3, 2]],    # 7-P5/32 RGB
    [-1, 1, SPP, [1024, [5, 9, 13]]], # 8-P5/32 RGB spatial pyramid
    [-1, 3, C3, [1024, False]],     # 9-P5/32 RGB final features

    ######### Thermal Stream (Independent Processing) #############
    [-4, 1, Focus, [64, 3]],        # 10-P1/2 Thermal input (-4 = thermal input)
    [-1, 1, Conv, [128, 3, 2]],     # 11-P2/4 Thermal
    [-1, 3, C3, [128]],             # 12-P2/4 Thermal features
    [-1, 1, Conv, [256, 3, 2]],     # 13-P3/8 Thermal
    [-1, 9, C3, [256]],             # 14-P3/8 Thermal features
    [-1, 1, Conv, [512, 3, 2]],     # 15-P4/16 Thermal
    [-1, 9, C3, [512]],             # 16-P4/16 Thermal features
    [-1, 1, Conv, [1024, 3, 2]],    # 17-P5/32 Thermal
    [-1, 1, SPP, [1024, [5, 9, 13]]], # 18-P5/32 Thermal spatial pyramid
    [-1, 3, C3, [1024, False]],     # 19-P5/32 Thermal final features

    ######### SINGLE FUSION POINT - P5 BCAM #############
    [[9,19], 1, BCAM, [1024]],      # 20: Bidirectional cross-attention at P5
                                     # Input: (RGB_P5, Thermal_P5)
                                     # Output: (rgb_enhanced, thermal_enhanced, fused)
    [[6, 16], 1, BCAM, [512]],       # 21: Bidirectional cross-attention at P4
                                     # Input: (RGB_P4, Thermal_P4)
                                     # Output: (rgb_enhanced, thermal_enhanced, fused)
    [[4, 14], 1, BCAM, [256]],       # 22: Bidirectional cross-attention at P3
                                     # Input: (RGB_P3, Thermal_P3)
                                     # Output: (rgb_enhanced, thermal_enhanced, fused)

    ######### Post-Fusion Processing #############
    # Use fused output for detection pathway
    # Note: BCAM returns 3-tuple, we need to extract fused output [2]
    # This will be handled in the forward pass or with a selection module
  ]

# YOLOv5 head - Modified to work with single fused backbone
head:
  [
    # BCAM at layer 20 now outputs 3072 channels (3x1024)
    [20, 1, Conv, [512, 1, 1]],                    # 21: Project 3072→512
    [-1, 1, nn.Upsample, [None, 2, 'nearest']],    # 22: Upsample P5→P4
    
    # P4 path
    [6, 1, Conv, [512, 1, 1]],                     # 23: RGB P4 features (512 ch)
    [[-1, -2], 1, Concat, [1]],                    # 24: Concat [512+512=1024]
    [-1, 3, C3, [512, False]],                     # 25: Process P4
    
    # P3 path
    [-1, 1, Conv, [256, 1, 1]],                    # 26: Project 512→256
    [-1, 1, nn.Upsample, [None, 2, 'nearest']],    # 27: Upsample P4→P3
    [4, 1, Conv, [256, 1, 1]],                     # 28: RGB P3 features (256 ch)
    [[-1, -2], 1, Concat, [1]],                    # 29: Concat [256+256=512]
    [-1, 3, C3, [256, False]],                     # 30: Process P3
    
    # Downsample path
    [-1, 1, Conv, [256, 3, 2]],                    # 31: P3→P4
    [[-1, 25], 1, Concat, [1]],                    # 32: Concat with P4 path
    [-1, 3, C3, [512, False]],                     # 33: Final P4
    
    [-1, 1, Conv, [512, 3, 2]],                    # 34: P4→P5
    [[-1, 21], 1, Concat, [1]],                    # 35: Concat with P5 path
    [-1, 3, C3, [1024, False]],                    # 36: Final P5
    
    [[30, 33, 36], 1, Detect, [nc, anchors]],      # Detection
  ]